pico_inference_project/src/modelo_expressoes_v_6006k.tflite (tflite, 101408 bytes, 11 tensors)

tfl.pseudo_qconst1 i1 [7, 64]
00000000: 21ad e781 c3c0 f4c2 17df d331 1ced 1dcd
00000010: c518 0f18 4628 f0e1 841e ec32 f403 4328
00000020: efe3 19c4 f2a1 f0b7 06f8 34f7 2dd0 e5ef
00000030: 0b2b 001d 190e 2c18 fba3 fa0c 06c9 ea03
00000040: fbef ea81 0bfe fbf2 f8ff d1fd 10f8 dae8
00000050: fd09 e501 00fc f807 e204 fcff bef8 e6d5
00000060: ece8 fbdd bcd7 00e6 fcf2 ecff 06e9 eedb
00000070: fe0d f307 eb10 0706 ebc9 0bdd d8c7 e307
00000080: 00e4 e3de deca 0d51 3413 e8f0 0301 81c1
00000090: 4af0 1918 1341 3aed f826 3831 bb0d 03d4
000000a0: fafd 1eea bbc4 0914 27f7 1ef6 3ac0 06aa
000000b0: f636 e91a dc1e 431b 0717 20e1 0900 0fe2
000000c0: 409f d6e6 901d 4281 0ffb 4ee0 c7e9 c2af
000000d0: b53b db04 404a 3ee1 a413 f941 d41f ee4f
000000e0: e41e dffa d4c9 d8a1 23f8 03a9 0625 01ff
000000f0: da30 28f3 10f6 614f d1df 401b 8597 c316
33 -83 -25 -127 -61 -64 -12 -62
23 -33 -45 49 28 -19 29 -51
-59 24 15 24 70 40 -16 -31
-124 30 -20 50 -12 3 67 40
-17 -29 25 -60 -14 -95 -16 -73
6 -8 52 -9 45 -48 -27 -17
11 43 0 29 25 14 44 24
-5 -93 -6 12 6 -55 -22 3
-5 -17 -22 -127 11 -2 -5 -14
-8 -1 -47 -3 16 -8 -38 -24
-3 9 -27 1 0 -4 -8 7
-30 4 -4 -1 -66 -8 -26 -43
-20 -24 -5 -35 -68 -41 0 -26
-4 -14 -20 -1 6 -23 -18 -37
-2 13 -13 7 -21 16 7 6
-21 -55 11 -35 -40 -57 -29 7
0 -28 -29 -34 -34 -54 13 81
52 19 -24 -16 3 1 -127 -63
74 -16 25 24 19 65 58 -19
-8 38 56 49 -69 13 3 -44
-6 -3 30 -22 -69 -60 9 20
39 -9 30 -10 58 -64 6 -86
-10 54 -23 26 -36 30 67 27
7 23 32 -31 9 0 15 -30
64 -97 -42 -26 -112 29 66 -127
15 -5 78 -32 -57 -23 -62 -81
-75 59 -37 4 64 74 62 -31
-92 19 -7 65 -44 31 -18 79
-28 30 -33 -6 -44 -55 -40 -95
35 -8 3 -87 6 37 1 -1
-38 48 40 -13 16 -10 97 79
-47 -33 64 27 -123 -105 -61 22

tfl.pseudo_qconst3 i1 [64, 1024]
00000000: 110d d2f0 d2c8 01eb 0215 09f2 f932 ce06
00000010: 04d3 dfc6 fcf4 030d e106 e8de fe09 48ee
00000020: 01e2 0b0c 03e7 fd2e d4f1 cec8 0804 0218
00000030: b1e0 e2d8 edf6 bbd5 05cb e026 1c23 0bb3
00000040: 2816 ef00 f6ee 06c4 0c12 f214 fc09 f0f6
00000050: 1106 06df 25fd d9e7 22e4 01e7 0911 25e9
00000060: dbec 0715 f10d 1bfb dfea deea ccf6 ddfa
00000070: dbc9 1cf9 fee1 0816 e2dd eefe 32f6 fcf3
00000080: f2ea dd16 e70e e5f0 08f9 0902 f208 d3e9
00000090: f907 e6fb 09f1 d2cd 10ff eb00 f6ec 0dcc
000000a0: d2ee 1702 f7f6 22fb fc01 f715 c303 1804
000000b0: 2dec 1519 f4ed 340b 2300 fcf7 face ee23
000000c0: ea1e d1f6 0909 f4ed 25e2 11fb e0f1 cbed
000000d0: 22de d6f5 dd1b db00 ea10 0bf6 fb16 f0d9
000000e0: dffd f3ed fcfc d605 f12e df1b e8f5 fef9
000000f0: 1dc8 0721 331e 09eb f709 01fd 160d 12ce
17 13 -46 -16 -46 -56 1 -21
2 21 9 -14 -7 50 -50 6
4 -45 -33 -58 -4 -12 3 13
-31 6 -24 -34 -2 9 72 -18
1 -30 11 12 3 -25 -3 46
-44 -15 -50 -56 8 4 2 24
-79 -32 -30 -40 -19 -10 -69 -43
5 -53 -32 38 28 35 11 -77
40 22 -17 0 -10 -18 6 -60
12 18 -14 20 -4 9 -16 -10
17 6 6 -33 37 -3 -39 -25
34 -28 1 -25 9 17 37 -23
-37 -20 7 21 -15 13 27 -5
-33 -22 -34 -22 -52 -10 -35 -6
-37 -55 28 -7 -2 -31 8 22
-30 -35 -18 -2 50 -10 -4 -13
-14 -22 -35 22 -25 14 -27 -16
8 -7 9 2 -14 8 -45 -23
-7 7 -26 -5 9 -15 -46 -51
16 -1 -21 0 -10 -20 13 -52
-46 -18 23 2 -9 -10 34 -5
-4 1 -9 21 -61 3 24 4
45 -20 21 25 -12 -19 52 11
35 0 -4 -9 -6 -50 -18 35
-22 30 -47 -10 9 9 -12 -19
37 -30 17 -5 -32 -15 -53 -19
34 -34 -42 -11 -35 27 -37 0
-22 16 11 -10 -5 22 -16 -39
-33 -3 -13 -19 -4 -4 -42 5
-15 46 -33 27 -24 -11 -2 -7
29 -56 7 33 51 30 9 -21
-9 9 1 -3 22 13 18 -50

tfl.pseudo_qconst4 i1 [64] scale=0.0029211259 zero_point=127
00000000: f200 ff2b 281e eefd d433 b7fd dadc 0af4
00000010: ff63 0e04 0319 f9f3 eee4 f7ca eb2d fbd4
00000020: 4111 9ff8 0c13 da2a 09f4 e1e7 2015 d9a0
00000030: 9202 d8a6 ae01 26ff 0443 1711 37a8 c980
-0.41187873 -0.37098297 -0.3739041 -0.24537458 -0.25413796 -0.28334922 -0.42356324 -0.37974635
-0.49951252 -0.22200556 -0.5842252 -0.37974635 -0.48198578 -0.4761435 -0.34177172 -0.4060365
-0.3739041 -0.08179152 -0.3300872 -0.35929847 -0.3622196 -0.29795483 -0.39143085 -0.40895763
-0.42356324 -0.4527745 -0.39727312 -0.5287238 -0.4323266 -0.23953232 -0.38558862 -0.49951252
-0.1811098 -0.32132384 -0.65433216 -0.394352 -0.33592948 -0.3154816 -0.48198578 -0.2482957
-0.34469286 -0.4060365 -0.4615379 -0.44401112 -0.27750695 -0.30963933 -0.48490688 -0.65141106
-0.6923068 -0.36514074 -0.48782802 -0.6338843 -0.6105153 -0.36806187 -0.2599802 -0.3739041
-0.35929847 -0.17526755 -0.3037971 -0.32132384 -0.21032107 -0.62804204 -0.5316449 -0.7448871

tfl.pseudo_qconst5 i1 [64] scale=0.003081158 zero_point=-128
00000000: e422 f9f4 ec34 fee4 d642 baff e3fe f901
00000010: 6931 e6ba 1f68 13e9 22d6 bcc4 d67f 09ed
00000020: 3bca c609 1ff5 027e dbf1 e5db 293f d6c4
00000030: bfc5 e3d8 c2eb e7db fb10 6812 26c7 d8bc
0.3081158 0.4991476 0.3728201 0.35741434 0.33276507 0.55460846 0.3882259 0.3081158
0.2649796 0.59774464 0.17870717 0.39130706 0.30503464 0.3882259 0.3728201 0.3974694
0.7179098 0.545365 0.31427813 0.17870717 0.48990414 0.71482867 0.45293024 0.32352158
0.4991476 0.2649796 0.18486948 0.20951875 0.2649796 0.7856953 0.42211866 0.33584622
0.5761765 0.22800569 0.21568106 0.42211866 0.48990414 0.36049548 0.40055054 0.7826141
0.28038538 0.34817085 0.31119695 0.28038538 0.5207157 0.58850116 0.2649796 0.20951875
0.19411296 0.2125999 0.30503464 0.27114192 0.20335643 0.3296839 0.31735927 0.28038538
0.37898242 0.44368675 0.71482867 0.44984907 0.5114722 0.21876222 0.27114192 0.18486948

tfl.pseudo_qconst7 i1 [64, 3, 3, 32]
00000000: 3faa d8f5 dbb7 bd3e e530 0629 17fe fba3
00000010: 00bf 01b5 a696 a900 1625 ca00 dbce e6d2
00000020: 4107 98fc fffc 988d ebf8 0915 fd1c eafb
00000030: f0f2 3ded c3f2 c0fe 2003 0dea 220e 04de
00000040: 2d16 963a 140f 8194 1528 e803 b0ae de01
00000050: 0b14 f40a fba6 043b 1110 22c1 e204 35be
00000060: efc5 cae6 cfe3 c204 96e8 160e c4e8 e7c6
00000070: 27e0 0cbc eb8c 8d06 d504 ba13 8616 d604
00000080: 2ddd 4316 41e3 09db dc0f ebdd fcdf c6f4
00000090: 10ed 24fe 0fcf ec2b c5f0 bde2 f61a f2e8
000000a0: 2414 c729 1eda 07d8 f8d8 e6ef d09a 90e8
000000b0: 37c8 f41e 2c11 01ea 280c dde5 ef36 bde6
000000c0: 1dcb 0c1d df2d 0203 0ceb 0d06 91fe b94f
000000d0: f937 0304 a9ce e711 b1df b027 160c f91f
000000e0: 45d7 372b 1f29 1404 3805 3adc 0137 ff09
000000f0: 18f4 0c3a f71c dc16 00e8 1406 4021 fa20
63 -86 -40 -11 -37 -73 -67 62
-27 48 6 41 23 -2 -5 -93
0 -65 1 -75 -90 -106 -87 0
22 37 -54 0 -37 -50 -26 -46
65 7 -104 -4 -1 -4 -104 -115
-21 -8 9 21 -3 28 -22 -5
-16 -14 61 -19 -61 -14 -64 -2
32 3 13 -22 34 14 4 -34
45 22 -106 58 20 15 -127 -108
21 40 -24 3 -80 -82 -34 1
11 20 -12 10 -5 -90 4 59
17 16 34 -63 -30 4 53 -66
-17 -59 -54 -26 -49 -29 -62 4
-106 -24 22 14 -60 -24 -25 -58
39 -32 12 -68 -21 -116 -115 6
-43 4 -70 19 -122 22 -42 4
45 -35 67 22 65 -29 9 -37
-36 15 -21 -35 -4 -33 -58 -12
16 -19 36 -2 15 -49 -20 43
-59 -16 -67 -30 -10 26 -14 -24
36 20 -57 41 30 -38 7 -40
-8 -40 -26 -17 -48 -102 -112 -24
55 -56 -12 30 44 17 1 -22
40 12 -35 -27 -17 54 -67 -26
29 -53 12 29 -33 45 2 3
12 -21 13 6 -111 -2 -71 79
-7 55 3 4 -87 -50 -25 17
-79 -33 -80 39 22 12 -7 31
69 -41 55 43 31 41 20 4
56 5 58 -36 1 55 -1 9
24 -12 12 58 -9 28 -36 22
0 -24 20 6 64 33 -6 32

tfl.pseudo_qconst8 i1 [32] scale=0.0057326355 zero_point=127
00000000: 1cf9 2d14 f101 1a02 203a 4b24 3633 240f
00000010: 8031 294c fd00 0dab 0135 1d46 4a4e 2d1e
-0.56753093 -0.76817316 -0.4700761 -0.613392 -0.8140342 -0.7223121 -0.5789962 -0.71657944
-0.54460037 -0.39555186 -0.29809704 -0.5216698 -0.4184824 -0.4356803 -0.5216698 -0.64205515
-1.461822 -0.44714558 -0.49300665 -0.29236442 -0.7452426 -0.7280447 -0.65352046 -1.2153187
-0.7223121 -0.42421502 -0.5617983 -0.32676023 -0.30382967 -0.28089914 -0.4700761 -0.5560656

tfl.pseudo_qconst9 i1 [32] scale=0.007851001 zero_point=-128
00000000: 7621 d30b f27f ddde d1e3 e1e6 0ae8 cffe
00000010: 37e9 f5c1 e9e5 ff1b 0c01 e4f0 db06 f026
1.9313462 1.2640111 0.6516331 1.0912892 0.8950141 2.0020053 0.7301431 0.7379941
0.6359311 0.7772491 0.7615471 0.8008021 1.0834382 0.8165041 0.62022907 0.9892261
1.4367331 0.82435507 0.9185671 0.51031506 0.82435507 0.7929511 0.9970771 1.2169051
1.0991402 1.0127791 0.7851001 0.8793121 0.71444106 1.0520341 0.8793121 1.3032662

tfl.pseudo_qconst11 i1 [32, 3, 3, 16]
00000000: 31e9 eee4 0cf9 14ef bbea a5f7 ddc1 cf14
00000010: 1cdd 13fc fe02 04e4 d607 cdc3 e7e8 f60b
00000020: 25f2 0bfb f5e5 e505 f211 02b8 18f0 0804
00000030: 12ee 111b 0012 0409 fdee 2fe9 e8f4 f213
00000040: 2bf3 dde7 ec2a 0e02 c7bc 05f0 f8da bd25
00000050: 3bdc f5e7 e21f 08b0 e3ce 99ea 03e5 b60e
00000060: 11ff f90d 01ed f50d da28 0c0c 0df9 0508
00000070: 2621 e507 f201 ff28 e3fb 27f6 fcf8 0416
00000080: 3de1 d9fd fd22 12d3 f781 fcf0 09c8 d613
00000090: 01e7 202e f7d6 0bd6 130d 0adf d60e 1cbf
000000a0: 2ab7 0fe7 15df 0db0 0a0f 2d02 cbea 1cb3
000000b0: 16ac 03da 1edf f6d0 de11 1716 c5bd 1fd2
000000c0: 07a1 16ad 08e3 f4b2 e208 ebe0 df0c 0dce
000000d0: 1c8f 26c3 06de 00b1 dc0c f7e7 d705 11e3
000000e0: 15a6 15be f4ca e9c9 e717 06ba acf6 fcc5
000000f0: 09e2 4c18 0228 06d1 051d 31f8 7fc7 1730
49 -23 -18 -28 12 -7 20 -17
-69 -22 -91 -9 -35 -63 -49 20
28 -35 19 -4 -2 2 4 -28
-42 7 -51 -61 -25 -24 -10 11
37 -14 11 -5 -11 -27 -27 5
-14 17 2 -72 24 -16 8 4
18 -18 17 27 0 18 4 9
-3 -18 47 -23 -24 -12 -14 19
43 -13 -35 -25 -20 42 14 2
-57 -68 5 -16 -8 -38 -67 37
59 -36 -11 -25 -30 31 8 -80
-29 -50 -103 -22 3 -27 -74 14
17 -1 -7 13 1 -19 -11 13
-38 40 12 12 13 -7 5 8
38 33 -27 7 -14 1 -1 40
-29 -5 39 -10 -4 -8 4 22
61 -31 -39 -3 -3 34 18 -45
-9 -127 -4 -16 9 -56 -42 19
1 -25 32 46 -9 -42 11 -42
19 13 10 -33 -42 14 28 -65
42 -73 15 -25 21 -33 13 -80
10 15 45 2 -53 -22 28 -77
22 -84 3 -38 30 -33 -10 -48
-34 17 23 22 -59 -67 31 -46
7 -95 22 -83 8 -29 -12 -78
-30 8 -21 -32 -33 12 13 -50
28 -113 38 -61 6 -34 0 -79
-36 12 -9 -25 -41 5 17 -29
21 -90 21 -66 -12 -54 -23 -55
-25 23 6 -70 -84 -10 -4 -59
9 -30 76 24 2 40 6 -47
5 29 49 -8 127 -57 23 48

tfl.pseudo_qconst12 i1 [16] scale=0.008844932 zero_point=120
00000000: 6716 bc6b 0c2e 1f0e 6680 3b74 747f 18b8
-0.15036383 -0.8668033 -1.6628472 -0.11498411 -0.9552526 -0.6545249 -0.7871989 -0.93756276
-0.15920877 -2.193543 -0.5395408 -0.035379726 -0.035379726 0.061914522 -0.84911346 -1.6982269

tfl.pseudo_qconst13 i1 [16] scale=0.1499816 zero_point=-128
00000000: 1951 c011 4eec 04ef 29e3 462e 767f e817
22.947186 31.346155 9.598823 21.747332 30.89621 16.198013 19.797571 16.647959
25.346891 14.848179 29.696358 26.0968 36.895473 38.245308 15.598086 22.647223

tfl.pseudo_qconst15 i1 [16, 3, 3, 1]
00000000: e2d7 b810 341a 8189 e856 9020 3581 4df9
00000010: f111 c3c8 dcd8 ee32 4d1e 7fdc cab2 8126
00000020: fd08 010c e1d5 14f4 7f44 10e9 86ce fe3d
00000030: 864a 3681 461f 337f 6525 c49b b1b6 fc68
00000040: b202 7fb3 cb4e d4ca 5e81 1a94 ce3c d94c
00000050: 1bf7 8196 594b 0d0a 60db f420 51e6 8197
00000060: 1973 10eb f0f7 e466 1381 d759 dbf6 16e7
00000070: 812b 6acc c181 4d60 a6f3 0dff a6c5 81d0
00000080: c231 d930 4021 36fe 5b91 c67f f29b 1c25
-30 -41 -72 16 52 26 -127 -119
-24 86 -112 32 53 -127 77 -7
-15 17 -61 -56 -36 -40 -18 50
77 30 127 -36 -54 -78 -127 38
-3 8 1 12 -31 -43 20 -12
127 68 16 -23 -122 -50 -2 61
-122 74 54 -127 70 31 51 127
101 37 -60 -101 -79 -74 -4 104
-78 2 127 -77 -53 78 -44 -54
94 -127 26 -108 -50 60 -39 76
27 -9 -127 -106 89 75 13 10
96 -37 -12 32 81 -26 -127 -105
25 115 16 -21 -16 -9 -28 102
19 -127 -41 89 -37 -10 22 -25
-127 43 106 -52 -63 -127 77 96
-90 -13 13 -1 -90 -59 -127 -48
-62 49 -39 48 64 33 54 -2
91 -111 -58 127 -14 -101 28 37
