pico_inference_project/src/modelo_expressoes.tflite (tflite, 32728 bytes, 2 tensors)

tfl.pseudo_qconst1 i1 [7, 4232]
0 0 0 -59 0 0 -4 -14
11 0 3 0 0 0 0 0
0 0 -4 0 0 0 0 0
0 0 0 0 0 0 0 -2
0 0 0 0 0 0 0 0
0 49 0 0 0 30 4 0
0 0 0 0 0 2 0 0
-22 0 0 0 0 4 0 0
19 0 -3 0 0 0 0 -100
0 0 0 0 0 0 0 0
0 0 0 0 24 39 5 0
-8 0 0 0 0 0 0 0
0 -6 0 0 0 -39 0 0
0 0 -9 -16 0 0 0 0
0 0 0 0 0 0 0 0
0 0 0 0 -15 0 0 0
-45 0 -7 0 0 0 0 -1
0 8 0 0 0 3 0 0
0 0 0 0 0 0 0 0
0 0 0 0 0 0 0 0
0 0 16 -84 0 0 -6 0
0 0 27 0 0 0 -7 0
0 0 0 0 0 0 0 0
0 0 0 0 10 0 0 0
0 0 0 0 0 -28 0 0
0 9 0 0 0 0 0 0
0 0 0 0 0 0 0 -63
43 30 0 0 0 0 5 0
-20 0 0 0 0 0 0 0
-2 11 0 0 0 -9 0 0
0 0 0 0 0 -38 0 0
0 0 0 0 0 0 0 0
00000000: 0000 00c5 0000 fcf2 0b00 0300 0000 0000
00000010: 0000 fc00 0000 0000 0000 0000 0000 00fe
00000020: 0000 0000 0000 0000 0031 0000 001e 0400
00000030: 0000 0000 0002 0000 ea00 0000 0004 0000
00000040: 1300 fd00 0000 009c 0000 0000 0000 0000
00000050: 0000 0000 1827 0500 f800 0000 0000 0000
00000060: 00fa 0000 00d9 0000 0000 f7f0 0000 0000
00000070: 0000 0000 0000 0000 0000 0000 f100 0000
00000080: d300 f900 0000 00ff 0008 0000 0003 0000
00000090: 0000 0000 0000 0000 0000 0000 0000 0000
000000a0: 0000 10ac 0000 fa00 0000 1b00 0000 f900
000000b0: 0000 0000 0000 0000 0000 0000 0a00 0000
000000c0: 0000 0000 00e4 0000 0009 0000 0000 0000
000000d0: 0000 0000 0000 00c1 2b1e 0000 0000 0500
000000e0: ec00 0000 0000 0000 fe0b 0000 00f7 0000
000000f0: 0000 0000 00da 0000 0000 0000 0000 0000

tfl.pseudo_qconst3 i1 [8, 3, 3, 1]
0 0 -127 0 0 0 127 0
0 0 127 0 0 0 0 0
0 0 0 0 0 0 0 0
0 0 -127 0 0 0 0 76
89 0 0 -127 0 0 0 127
0 0 0 0 0 114 -127 0
0 0 0 0 0 0 0 0
-127 0 0 0 -114 0 0 0
126 0 0 0 0 0 0 -127
00000000: 0000 8100 0000 7f00 0000 7f00 0000 0000
00000010: 0000 0000 0000 0000 0000 8100 0000 004c
00000020: 5900 0081 0000 007f 0000 0000 0072 8100
00000030: 0000 0000 0000 0000 8100 0000 8e00 0000
00000040: 7e00 0000 0000 0081
